autoencoder.pth (torch, 4528 bytes, 6 tensors)

weight f4 [3, 4]
0.025554644 -0.08179055 0.17392443 0.02948647 -0.012188859 0.061245188 -0.12745392 -0.03208334
-0.004753349 -0.056725875 -0.030895159 -0.0054031652
00000000: f957 d13c ce81 a7bd 3f19 323e 9c8d f13c
00000010: c8b3 47bc 3cdc 7a3d 4883 02be d269 03bd
00000020: fbc1 9bbb 6459 68bd d817 fdbc 090d b1bb

bias f4 [3]
-0.027997969 0.023522556 0.12920223
00000000: ff5b e5bc 60b2 c03c 974d 043e

weight f4 [4, 3]
2.2210653 -0.95245355 -2.9184504 -0.24911484 -0.34810293 -0.17938654 -1.0332083 2.8157358
-0.99247074 1.2762223 0.024988813 3.7164953
00000000: ef25 0e40 ffd3 73bf e4c7 3ac0 f617 7fbe
00000010: 8c3a b2be 1bb1 37be 2b40 84bf 0435 3440
00000020: 9012 7ebf 415b a33f 57b5 cc3c 0fdb 6d40

bias f4 [4]
0.8522719 -0.48782066 0.5290486 0.03461842
00000000: 7e2e 5a3f a1c3 f9be bb6f 073f 0bcc 0d3d

weight f4 [4, 4]
2.3351355 -0.42458212 -0.10419274 -0.4263984 1.0393115 0.47180027 1.5357245 -2.5279846
1.2915696 0.12027222 -1.2470008 -0.52485484 1.2995744 -0.11915678 -1.1504488 -0.5756716
00000000: dc72 1540 d462 d9be 0163 d5bd e450 dabe
00000010: 2908 853f ce8f f13e 9f92 c43f 80ca 21c0
00000020: 2752 a53f 4851 f63d b99d 9fbf e35c 06bf
00000030: 7458 a63f 7808 f4bd e841 93bf 375f 13bf

bias f4 [4]
-1.090482 0.12244944 0.28078204 0.21829966
00000000: ea94 8bbf c6c6 fa3d aac2 8f3e f289 5f3e
