checkpoint_autoencoder.pth (torch, 8114 bytes, 18 tensors)

encoder.0.weight f4 [3, 4]
00000000: f957 d13c ce81 a7bd 3f19 323e 9c8d f13c
00000010: c8b3 47bc 3cdc 7a3d 4883 02be d269 03bd
00000020: fbc1 9bbb 6459 68bd d817 fdbc 090d b1bb
0.025554644 -0.08179055 0.17392443 0.02948647 -0.012188859 0.061245188 -0.12745392 -0.03208334
-0.004753349 -0.056725875 -0.030895159 -0.0054031652

encoder.0.bias f4 [3]
00000000: ff5b e5bc 60b2 c03c 974d 043e
-0.027997969 0.023522556 0.12920223

decoder.0.weight f4 [4, 3]
00000000: ef25 0e40 ffd3 73bf e4c7 3ac0 f617 7fbe
00000010: 8c3a b2be 1bb1 37be 2b40 84bf 0435 3440
00000020: 9012 7ebf 415b a33f 57b5 cc3c 0fdb 6d40
2.2210653 -0.95245355 -2.9184504 -0.24911484 -0.34810293 -0.17938654 -1.0332083 2.8157358
-0.99247074 1.2762223 0.024988813 3.7164953

decoder.0.bias f4 [4]
00000000: 7e2e 5a3f a1c3 f9be bb6f 073f 0bcc 0d3d
0.8522719 -0.48782066 0.5290486 0.03461842

decoder.2.weight f4 [4, 4]
00000000: dc72 1540 d462 d9be 0163 d5bd e450 dabe
00000010: 2908 853f ce8f f13e 9f92 c43f 80ca 21c0
00000020: 2752 a53f 4851 f63d b99d 9fbf e35c 06bf
00000030: 7458 a63f 7808 f4bd e841 93bf 375f 13bf
2.3351355 -0.42458212 -0.10419274 -0.4263984 1.0393115 0.47180027 1.5357245 -2.5279846
1.2915696 0.12027222 -1.2470008 -0.52485484 1.2995744 -0.11915678 -1.1504488 -0.5756716

decoder.2.bias f4 [4]
00000000: ea94 8bbf c6c6 fa3d aac2 8f3e f289 5f3e
-1.090482 0.12244944 0.28078204 0.21829966

exp_avg f4 [3, 4]
00000000: 0a40 03bc 765c 9fba ec84 2b3c ca4a 673c
00000010: 8292 cabc d166 373d def4 39bd 7e9e 3cbd
00000020: fcf0 c4bd a48c cabd 9798 e43c 0252 0c3d
-0.008010874 -0.0012158293 0.010468703 0.014116952 -0.024728063 0.044775788 -0.04539954 -0.046049587
-0.096162766 -0.09890106 0.027904792 0.034257896

exp_avg_sq f4 [3, 4]
00000000: b570 613d 9533 2c3d 278c 683d 5000 6a3d
00000010: b33b 493d c060 753d 84fb a83d 4afb 9d3d
00000020: 3e4b 0d40 54d4 0140 678b 3340 1202 2a40
0.055039126 0.04204138 0.056774285 0.057129204 0.0491292 0.05990672 0.08251098 0.07713945
2.2077174 2.0285845 2.8053834 2.6563764

exp_avg f4 [3]
00000000: bbb0 433b 6587 0f3d 080a e53b
0.0029859978 0.03504123 0.006989721

exp_avg_sq f4 [3]
00000000: 4c27 e23d 362e 493d 89a8 3040
0.110426515 0.049116336 2.7602866

exp_avg f4 [4, 3]
00000000: 0461 8cba 3974 2bbb bb41 06b9 0000 0000
00000010: 0000 0000 0000 0000 60ee f2ba 3e07 263b
00000020: a791 fe3a 4fa5 1c3b 6ee8 a9ba 9d8b 06b9
-0.0010710065 -0.0026161803 -0.00012803722 0.0 0.0 0.0 -0.0018534176 0.0025333907
0.001942207 0.0023902243 -0.0012962946 -0.00012831246

exp_avg_sq f4 [4, 3]
00000000: 783f 0d3a 9ef9 033a c5ff e639 0000 0000
00000010: 0000 0000 0000 0000 59b8 643a a737 303a
00000020: 022c 3e3a 2898 123b abbf c33a 7d3e e63a
0.0005388181 0.0005034449 0.00044059582 0.0 0.0 0.0 0.00087249797 0.000672216
0.00072544825 0.0022368524 0.0014934441 0.001756623

exp_avg f4 [4]
00000000: d65d f8bb 0000 0000 5060 393c 2d22 323b
-0.0075795455 0.0 0.011314467 0.0027181015

exp_avg_sq f4 [4]
00000000: 49f9 b73c 0000 0000 d8bb 1c3d d3f6 bb3d
0.022457736 0.0 0.03826508 0.09177937

exp_avg f4 [4, 4]
00000000: af03 0eb9 0000 0000 adcb 55bb 4462 5a3a
00000010: 72c0 44bb 0000 0000 b3ec 6d3b 4eb6 45b9
00000020: f3e2 c5ba 0000 0000 3604 88bb 4f8e 41bb
00000030: 0bd1 e9b9 0000 0000 182b e5ba 90ff dfba
-0.00013543548 0.0 -0.003262262 0.0008330683 -0.0030021933 0.0 0.0036304414 -0.00018855298
-0.0015097543 0.0 -0.0041508926 -0.0029534285 -0.00044596972 0.0 -0.0017484156 -0.0017089713

exp_avg_sq f4 [4, 4]
00000000: cb3b 593a 0000 0000 d45a 803a 98b1 533a
00000010: 1895 1e3c 0000 0000 6871 8a3b 8fa7 ec3b
00000020: 0b58 853a 0000 0000 726c bc3a 7dba 833a
00000030: 91a8 573a 0000 0000 aabc 7e3a c65e 543a
0.0008286803 0.0 0.0009792694 0.0008075475 0.009679101 0.0 0.004224945 0.007222123
0.0010173334 0.0 0.0014375581 0.0010050085 0.00082267175 0.0 0.0009717444 0.00081012805

exp_avg f4 [4]
00000000: b543 9c39 a27d 383a 0e63 abbb 3c50 53bb
0.00029805084 0.0007037764 -0.005230314 -0.0032243868

exp_avg_sq f4 [4]
00000000: 9cb3 de3a 0168 6b3c 5be5 103b a148 e03a
0.0016990784 0.014368058 0.0022109363 0.0017111489
